last_brain.pth (torch_old, 5158 bytes, 12 tensors)

fc1.weight f4 [30, 5]
00000000: 8c4f 5e3e f83c f13e d831 a8b7 2d08 75bf
00000010: 2990 563f 97cd 7ebe c77b 3d3f e2ea f03e
00000020: 9c6b 9c3d 5926 ebbe 2894 0dbd bb44 053f
00000030: ff02 4abe a328 35bf 0441 d93e 8f92 e83e
00000040: 6897 473f abc9 26bf 1afa 8ebe 92eb b93e
00000050: d230 da3e 061e 843f 08ee b93e a523 01bf
00000060: 89ae ec3d 67a0 253e 32ae f7bb e8e9 f53d
00000070: efec 6d3e 09d8 043e f1a5 da3e 8c92 b23e
00000080: db68 ce3e 8a2d 42bf 88c9 153f ac67 173f
00000090: fd45 1c3f 7d08 173f 9d2d 393f 9dd3 3dbe
000000a0: ac2d 293f f990 a63e 99f4 abbe 61c0 cebc
000000b0: 4677 093f 1fcb 83be 2437 23be 4e73 33be
000000c0: 3cef 8e3e 2358 4ebd 9e06 943e b3f0 043f
000000d0: 83b7 19bf 59ce 50bf 0f86 4f3e e2a4 abbe
000000e0: 15ff 66be 00f4 96be a89b 1dbe 34ca b6be
000000f0: 68f7 273e a057 8dbd fa62 99be eca2 86bd
00000100: 3025 e0bd 86ee 5cbf 2630 8d3d 1b3b af3d
00000110: 7d92 6d3e dc7f b33e e6a7 f43e 3cf2 e33d
00000120: 514a d3be 3136 913f 1073 57bf acd9 e03e
00000130: 3932 683f a622 81be 9b7f de3e 3be7 08bf
00000140: 4a95 bf3e 964c 803f 4170 cd3e e431 983d
00000150: 5e38 32be 6d21 29bf 37c6 6a3f a15e a13e
00000160: 5838 12be 7ff3 293f 5ecf 213e 9815 1bbf
00000170: 8c1c e13e bffd 833f 464e 67bf 97e7 97be
00000180: f815 fc3d 5d7b 853e 944f 843e fd58 6f3e
00000190: f690 73bf 8ed0 f3bc 4040 ad3e 0172 b63d
000001a0: 553f ea3e cc61 123e 81ce c9be 790f e13e
000001b0: d4d1 8f3f b17e 88bf 7256 e1be 0f96 4bbd
000001c0: 3eba 99be 91d6 413e 68a9 fb3b 14d0 443e
000001d0: 5113 e3be 0f36 9c3e 2d3d a4be d3ee b13e
000001e0: 682d 87bd 79b6 b53e 627e 83bf 0aa3 3f3d
000001f0: 411e cdbe 6bac 2a3e ef6c 903f 0a7d d2be
00000200: e757 4abe 33cf aa3e 9bc7 133e 0664 4c3e
00000210: 323f c13d 7829 6abf a64a 463f c744 543e
00000220: fee7 66bf cf65 6d3f 5056 023c eb6f 1a3f
00000230: 40f4 38be 2ac4 773f 8533 1f3f b2bc 033b
00000240: ebfb 0b3f ca58 e03d 9979 5cbe 866f b0be
00000250: d412 90bd 2c59 d33d
0.21710032 0.47116828 -2.0050371e-05 -0.957156 0.8381372 -0.24883114 0.74016994 0.470542
0.07637712 -0.45927694 -0.03456512 0.52058 -0.19727705 -0.7076513 0.42432415 0.45424315
0.779654 -0.6515147 -0.27925187 0.36312538 0.42615372 1.0321662 0.36314416 -0.50445014
0.115567274 0.1617447 -0.0075586075 0.12007505 0.23234914 0.12973036 0.42704728 0.3487743
0.40314373 -0.7585074 0.5851064 0.59142566 0.61044294 0.5899733 0.72335225 -0.18537755
0.66085315 0.3253248 -0.3358505 -0.025238218 0.5369762 -0.25740907 -0.15939003 -0.17524454
0.27916896 -0.050377022 0.289113 0.5192978 -0.6004564 -0.8156486 0.20265983 -0.33524233
-0.22558244 -0.29483032 -0.1539141 -0.35701144 0.16402972 -0.06901479 -0.29958326 -0.06574044
-0.10944593 -0.8630146 0.06893949 0.08556195 0.23200412 0.35058486 0.47784346 0.11130187
-0.41267636 1.1344663 -0.84159946 0.4391607 0.90701634 -0.25221747 0.4345673 -0.5347783
0.37418586 1.0023372 0.40124705 0.07431391 -0.17404315 -0.6606663 0.917087 0.3151751
-0.14279306 0.6638717 0.1580176 -0.60579824 0.43967092 1.0311812 -0.9035381 -0.29668877
0.12308878 0.2607068 0.25841963 0.2337379 -0.9514307 -0.029762533 0.3383808 0.08908463
0.45751444 0.14295119 -0.39415362 0.43957117 1.123591 -1.0663663 -0.44011265 -0.049703654
-0.30024904 0.18929507 0.007680107 0.1922 -0.44350675 0.30509993 -0.32077923 0.3475252
-0.066004574 0.35490778 -1.0272944 0.046786346 -0.40062144 0.16667335 1.1283244 -0.41111022
-0.19760095 0.33361205 0.14431612 0.19960031 0.09435882 -0.91469526 0.77457654 0.20729361
-0.9019774 0.9273347 0.007955149 0.60327023 -0.18061924 0.967837 0.6218799 0.0020101485
0.5468127 0.10954435 -0.21530761 -0.34460086 -0.07034841 0.103197426

fc1.bias f4 [30]
00000000: b61e 0fbf c211 1ebe 66e9 e8be 10d8 cfbe
00000010: c292 fd3d 2525 c9be 678a 90be a434 b33b
00000020: 7afb 57be a36b b4be 0a46 e2be 3641 51be
00000030: 6229 a4be 6284 473f 84b3 e3bb a369 803e
00000040: a876 ffbc a7be b3be 7292 9bbe 16de cabe
00000050: fc2d 1b3f cdd9 c6be 6e2a 37be 3adf 803e
00000060: 34d6 8f3e b04e adbe 400d f33c 3aa2 c33e
00000070: e09c 81bd 8351 b6be
-0.55906236 -0.15436462 -0.4549057 -0.4059453 0.123815075 -0.39286152 -0.28230593 0.0054689217
-0.21092024 -0.3523837 -0.4419406 -0.20435032 -0.32062823 0.77936375 -0.00694889 0.25080594
-0.03118451 -0.35106394 -0.30385166 -0.39622563 0.6061704 -0.38838044 -0.1788728 0.25170308
0.28093112 -0.33849096 0.029669404 0.38209707 -0.0632875 -0.35609064

fc2.weight f4 [3, 30]
00000000: 9509 19bf 187c 91be f9e0 29bf 2a2e 773f
00000010: e45b a3be f7e5 ad3d 6c0d 00bf 57be 28bf
00000020: 16f8 20bf 44f3 c53d ae45 37bf fe9b 8bbd
00000030: 8f88 34be 8a68 083f 8364 5f3e c62e 1fbf
00000040: a517 97be 3371 98be cddf 4ebf 7cf9 153e
00000050: 09b6 2a3f 1caf 1bbf f66c 87bd c1a0 8f3e
00000060: aee2 c83e 737f b93f 24ca a6be 7e08 053f
00000070: 19a8 f8bd f6ef 073d 8fe0 abbe b0ec 20bf
00000080: 2eb2 4cbe 9f46 19bf ef30 94be c617 0c3e
00000090: 4e5e 68bd d2c2 2fbe 4dac 0c3e 739a b5bd
000000a0: d538 85be 2906 e4bb ac71 e03d bcc7 523e
000000b0: ffd5 7abf 419b aebe 25f6 9fbe a696 46bf
000000c0: cddd 15bf a4fe a03d f16c 9bbe 9ea0 31bf
000000d0: 2492 71bd 9c2c 673e d021 43be 57d1 08bf
000000e0: 2ef2 35be 3c0d 743f 226f eebe 8560 e43d
000000f0: 03d1 1fbf 25bb c3be 39e3 78bd 39e3 223f
00000100: 4087 bdbe 0b42 1ebe 01e7 00bf 6ae0 efbe
00000110: 1094 9bbe 2504 1d3e 7f36 56be 612d fe3d
00000120: 2cd1 0cbe 4eb1 143f adff a4be 79f7 b13d
00000130: fa62 77be 356f 99bd a556 84bf b4d4 53bd
00000140: e7f2 213f a5bc 41bf f11a 7a3d caca 033d
00000150: f2f2 223f 05e5 8a3f 9e3c 46bf 5543 0dbe
00000160: 9c58 5cbe 9c32 c3bd
-0.59780246 -0.2841499 -0.66358906 0.96554816 -0.31906044 0.08491128 -0.5002048 -0.65915436
-0.6287855 0.0966554 -0.715907 -0.068168625 -0.17630218 0.53284514 0.21815686 -0.62180746
-0.29510227 -0.29773864 -0.8081024 0.14645952 0.66684014 -0.6081407 -0.066125795 0.28052333
0.39235443 1.449202 -0.32576096 0.51966083 -0.12141437 0.03318783 -0.33569762 -0.62861156
-0.19989845 -0.59873384 -0.28943583 0.13680944 -0.05673056 -0.17164162 0.13737603 -0.088673495
-0.26019922 -0.006958742 0.10959181 0.20584005 -0.9798278 -0.34102824 -0.3124248 -0.7757362
-0.58541566 0.07861069 -0.30356553 -0.6938571 -0.05897726 0.22575611 -0.19055867 -0.5344443
-0.17768165 0.95332694 -0.46569163 0.11151222 -0.624283 -0.38228717 -0.06076357 0.63627964
-0.3701725 -0.15454881 -0.50352484 -0.46850902 -0.303864 0.15333612 -0.20919226 0.12410999
-0.13751668 0.58083045 -0.32226315 0.0868978 -0.2415885 -0.07491914 -1.0338942 -0.05171652
0.63261265 -0.75678474 0.06106085 0.032175817 0.63651955 1.0851141 -0.77436244 -0.13795216
-0.21518177 -0.09531137

fc2.bias f4 [3]
00000000: 6620 b5bc bffa 533e df2f c83d
-0.022110175 0.20701121 0.09774756

exp_avg f4 [30, 5]
00000000: 76be 2739 c740 d136 56fe 18ba 5fde b339
00000010: 5fde b3b9 0a11 57b9 a86b f8ba a2cd 84ba
00000020: a8c5 9eba a8c5 9e3a ec01 efb7 4522 3336
00000030: 93c2 51ba 884a 0a3a 884a 0aba f259 08ba
00000040: ec01 00b8 34e8 5339 72df a8ba 72df a83a
00000050: 3031 5bb9 ea83 ffba 4423 53ba 9c41 75ba
00000060: 9c41 753a 0400 0000 0400 0000 0000 0000
00000070: 0400 0000 0400 0080 bedd 3eba 3f5f cbba
00000080: 8034 89b6 7a24 5bb8 7a24 5b38 25ef 61ba
00000090: 5f37 40bb 48cf d1b9 1335 d4ba 1335 d43a
000000a0: 2d75 4fba 6922 2cba f215 95ba d196 5c38
000000b0: d196 5cb8 0000 0000 0000 0000 0000 0000
000000c0: 0400 0000 0400 0080 57da 35b7 f107 6936
000000d0: 8bec 35b8 2063 d838 2063 d8b8 0000 0000
000000e0: 0000 0000 0000 0000 0400 0000 0400 0080
000000f0: 0000 0000 0000 0000 0000 0000 0000 0000
00000100: 0000 0000 845b 453a 0c73 5c3b 0371 923a
00000110: 747d bc3a 747d bcba ff61 d439 41cc 5dba
00000120: 707b 9338 3e73 47b9 3e73 4739 6c60 42ba
00000130: 013c 1fba d356 96ba 1281 80ba 1281 803a
00000140: 7952 4cb9 ffb5 b6ba fa71 2fba 260d 30ba
00000150: 260d 303a 8b4c c5b3 13d8 8ab9 b8ad 9fb9
00000160: 5554 83b9 5554 8339 2f7d 8dba 7032 c1ba
00000170: aaeb ceb8 dae2 02bb dae2 023b 0000 0000
00000180: 0000 0000 0400 0000 0400 0000 0400 0080
00000190: 33bc 8c39 0e51 393b e436 90b8 b9d2 d039
000001a0: b9d2 d0b9 54d5 8bba e51f 81ba e068 7cba
000001b0: 6463 c6ba 6463 c63a 0000 0000 0400 0000
000001c0: 0000 0000 0400 0000 0400 0080 300f fa37
000001d0: b489 df38 3131 09b9 04c4 dd39 04c4 ddb9
000001e0: 6c90 97b9 3d8d 273b a3a8 a23a b005 723a
000001f0: b005 72ba 6bfe 043b bc4d ce3b f793 9a3b
00000200: 3b84 283a 3b84 28ba d616 2d39 fae6 b9ba
00000210: 40bc db38 02ab a238 02ab a2b8 7acd 053a
00000220: 24ba 783a 8df2 633a 43cc 083b 43cc 08bb
00000230: 928e 4539 9056 61ba 4849 05ba 5e2d 2cba
00000240: 5e2d 2c3a 0400 0000 0000 0000 0000 0000
00000250: 0400 0080 0400 0000
0.00015997313 6.2362265e-06 -0.0005836239 0.0003430722 -0.0003430722 -0.00020510345 -0.0018952983 -0.0010132084
-0.001211335 0.001211335 -2.8491915e-05 2.6693026e-06 -0.0008001711 0.0005275388 -0.0005275388 -0.0005201391
-3.0519368e-05 0.0002020903 -0.0012883975 0.0012883975 -0.00020903791 -0.001949427 -0.0008054266 -0.0009355785
0.0009355785 6e-45 6e-45 0.0 6e-45 -6e-45 -0.0007280967 -0.0015516056
-4.08903e-06 -5.224764e-05 5.224764e-05 -0.0008618704 -0.0029329879 -0.00040018023 -0.0016190134 0.0016190134
-0.0007913884 -0.0006566407 -0.0011374338 5.2592546e-05 -5.2592546e-05 0.0 0.0 0.0
6e-45 -6e-45 -1.0839277e-05 3.4724328e-06 -4.337406e-05 0.00010318146 -0.00010318146 0.0
0.0 0.0 6e-45 -6e-45 0.0 0.0 0.0 0.0
0.0 0.00075285905 0.003363791 0.0011172596 0.001438065 -0.001438065 0.00040508804 -0.0008460917
7.032498e-05 -0.0001902105 0.0001902105 -0.00074148807 -0.000607431 -0.0011469967 -0.0009804091 0.0009804091
-0.0001948568 -0.0013939737 -0.0006692704 -0.00067158265 0.00067158265 -9.1874504e-08 -0.000264824 -0.00030456274
-0.000250491 0.000250491 -0.0010794754 -0.0014739763 -9.866741e-05 -0.001997164 0.001997164 0.0
0.0 6e-45 6e-45 -6e-45 0.000268431 0.0028277072 -6.876679e-05 0.00039829852
-0.00039829852 -0.0010668435 -0.0009851424 -0.00096286647 -0.0015135822 0.0015135822 0.0 6e-45
0.0 6e-45 -6e-45 2.9809395e-05 0.00010659118 -0.00013083663 0.00042298448 -0.00042298448
-0.00028908567 0.0025566362 0.0012409877 0.0009232415 -0.0009232415 0.0020293246 0.0062958878 0.004717346
0.0006428395 -0.0006428395 0.00016507073 -0.0014183216 0.00010477798 7.756615e-05 -7.756615e-05 0.0005104166
0.00094881863 0.00086955057 0.0020873703 -0.0020873703 0.00018840496 -0.00085959677 -0.0005084467 -0.00065680395
0.00065680395 6e-45 0.0 0.0 -6e-45 6e-45

exp_avg_sq f4 [30, 5]
00000000: 407e ef36 1dfd af36 ac78 2137 c3e1 2e37
00000010: c3e1 2e37 441a a337 d360 9b37 5bd6 9937
00000020: ecda fa36 ecda fa36 f1b8 1936 8960 0a36
00000030: aff4 5d36 cccc b636 cccc b636 03d5 2838
00000040: b256 2838 1001 4637 8186 b137 8186 b137
00000050: 990b b237 ec6d a937 81ec 8837 e787 5a37
00000060: e787 5a37 6bb7 b32d 6bb7 b32d 0000 0000
00000070: cd51 b12d cd51 b12d 3c80 6e37 6cf6 6d37
00000080: 6c9e 8d37 f1b3 3d37 f1b3 3d37 762e 2e38
00000090: 3b07 3738 57dd 0438 5866 b537 5866 b537
000000a0: e669 ab37 b9df a737 f0dc 3b37 914a 8837
000000b0: 914a 8837 0000 0000 0000 0000 0000 0000
000000c0: 47da 122f 47da 122f be29 9037 bd3d 8637
000000d0: 0437 bf36 ed97 4537 ed97 4537 0000 0000
000000e0: 0000 0000 0000 0000 ec68 dd31 ec68 dd31
000000f0: 0000 0000 0000 0000 0000 0000 0000 0000
00000100: 0000 0000 1519 e337 3f27 fd37 a917 be37
00000110: 5798 b337 5798 b337 cf0c 4637 d27a 4737
00000120: 6119 6e37 86db c536 86db c536 e52e 0438
00000130: f361 0338 bfc1 a937 ad7c 8837 ad7c 8837
00000140: 2921 5e37 583d 4537 32bb 3937 d703 d636
00000150: d703 d636 1587 f236 efd4 d936 cb55 3537
00000160: d7d0 a436 d7d0 a436 cfcf 4738 ad66 5638
00000170: 77c3 3d38 0af0 ec37 0af0 ec37 0000 0000
00000180: 0000 0000 ed68 832d ef7c 7e2d ef7c 7e2d
00000190: e9a4 be36 d5fa 3a37 c53c 9b37 1765 8f37
000001a0: 1765 8f37 ea2b 1538 ef20 1b38 f25f fe37
000001b0: 60db 9a37 60db 9a37 0000 0000 506b 842d
000001c0: 0000 0000 2bd1 0532 2bd1 0532 e074 5c36
000001d0: 61cc 2a36 c265 8e36 8599 1c36 8599 1c36
000001e0: 1c11 5d37 1cbc 8537 98cf c736 d3ff 2037
000001f0: d3ff 2037 a068 bf38 2608 e438 4bda 5d38
00000200: 33a1 9038 33a1 9038 4bd8 bd36 d0cb ae36
00000210: 000f 2037 1825 0b37 1825 0b37 2821 6638
00000220: 26e8 1738 32af 8d38 a786 cf37 a786 cf37
00000230: f8c9 4b37 1f37 1d37 8b21 3f37 c4de b636
00000240: c4de b636 4274 082d 0000 0000 0000 0000
00000250: 0866 fd2c 0866 fd2c
7.1374525e-06 5.2448727e-06 9.624444e-06 1.0423772e-05 1.0423772e-05 1.9443345e-05 1.8522527e-05 1.8338838e-05
7.4760665e-06 7.4760665e-06 2.2906427e-06 2.0619793e-06 3.307399e-06 5.447864e-06 5.447864e-06 4.0252704e-05
4.0135063e-05 1.1801967e-05 2.1162678e-05 2.1162678e-05 2.1224654e-05 2.0197556e-05 1.6322594e-05 1.3025455e-05
1.3025455e-05 2.0431398e-11 2.0431398e-11 0.0 2.0158897e-11 2.0158897e-11 1.4215762e-05 1.4183675e-05
1.688228e-05 1.1307174e-05 1.1307174e-05 4.1528103e-05 4.3637334e-05 3.167739e-05 2.1624539e-05 2.1624539e-05
2.0434101e-05 2.001213e-05 1.119751e-05 1.6247186e-05 1.6247186e-05 0.0 0.0 0.0
1.335617e-10 1.335617e-10 1.7185575e-05 1.6002794e-05 5.6986482e-06 1.1777488e-05 1.1777488e-05 0.0
0.0 0.0 6.4438748e-09 6.4438748e-09 0.0 0.0 0.0 0.0
0.0 2.7072188e-05 3.0178226e-05 2.2660783e-05 2.1409402e-05 2.1409402e-05 1.1804702e-05 1.1889921e-05
1.4191814e-05 5.8966134e-06 5.8966134e-06 3.1514926e-05 3.1324056e-05 2.023659e-05 1.627052e-05 1.627052e-05
1.3239952e-05 1.1756398e-05 1.1070444e-05 6.378144e-06 6.378144e-06 7.2278876e-06 6.4918927e-06 1.0808416e-05
4.911893e-06 4.911893e-06 4.7638834e-05 5.11172e-05 4.5243152e-05 2.824517e-05 2.824517e-05 0.0
0.0 1.4939572e-11 1.4465969e-11 1.4465969e-11 5.6816393e-06 1.1144865e-05 1.8505738e-05 1.7094002e-05
1.7094002e-05 3.5565266e-05 3.698555e-05 3.0323838e-05 1.8460385e-05 1.8460385e-05 0.0 1.5054319e-11
0.0 7.789178e-09 7.789178e-09 3.2850585e-06 2.5450938e-06 4.243776e-06 2.3335172e-06 2.3335172e-06
1.317661e-05 1.594243e-05 5.9548292e-06 9.596307e-06 9.596307e-06 9.127078e-05 0.00010873405 5.2893807e-05
6.896481e-05 6.896481e-05 5.6578187e-06 5.209331e-06 9.540236e-06 8.293682e-06 8.293682e-06 5.4867152e-05
3.621741e-05 6.7560366e-05 2.4739025e-05 2.4739025e-05 1.2146767e-05 9.370763e-06 1.1392297e-05 5.449956e-06
5.449956e-06 7.756519e-12 0.0 0.0 7.2020202e-12 7.2020202e-12

exp_avg f4 [30]
00000000: 7849 de39 b454 34bb 12ad 01b9 241a 453a
00000010: 7eb1 f4ba 0400 0000 88f6 ba37 54be 3fbb
00000020: d2ee c6b9 0400 0000 9e81 9a39 0400 0000
00000030: 0000 0000 ce7c 773b 7c34 51ba 3a14 f7ba
00000040: 38ee dcba dedf b339 5b6c 1dbb 0400 0000
00000050: cb5d 603b a96b 32bb 0400 0000 e012 0c37
00000060: 81d5 703b 398d f23b 8ad6 40ba a739 033a
00000070: ac67 9eb9 0400 0000
0.00042397878 -0.0027516307 -0.00012366872 0.0007518849 -0.001866862 6e-45 2.2287728e-05 -0.0029257732
-0.00037943438 6e-45 0.0002946974 6e-45 0.0 0.0037763598 -0.0007980538 -0.0018850632
-0.0016855663 0.00034308335 -0.0024020884 6e-45 0.0034235592 -0.0027224815 6e-45 8.349045e-06
0.0036748352 0.007402089 -0.00073561876 0.0005005844 -0.0003021335 6e-45

exp_avg_sq f4 [30]
00000000: 9366 1038 e61f dd37 0e44 9437 e749 4638
00000010: a188 1338 6bb7 b32d 7794 2b38 1289 7138
00000020: 4339 3238 cef5 172f af5e 1d38 e180 2c32
00000030: 0000 0000 7e99 7c38 5a5b 7637 2cea 2b38
00000040: cd3e 9b37 7c81 9d37 3261 8338 ed68 832d
00000050: 9bf4 8338 ff73 3c38 5907 5d32 3f8b 1537
00000060: 14eb e137 a04c 0d39 44bc ee37 3038 cb38
00000070: 4d3b 9737 4274 082d
3.4427805e-05 2.6360107e-05 1.7674665e-05 4.7275706e-05 3.5174777e-05 2.0431398e-11 4.0907846e-05 5.7586534e-05
4.2491836e-05 1.3820697e-10 3.7519898e-05 1.0041021e-08 0.0 6.0224433e-05 1.4684012e-05 4.0987667e-05
1.8506684e-05 1.8776154e-05 6.264671e-05 1.4939572e-11 6.292128e-05 4.4930723e-05 1.2865564e-08 8.913513e-06
2.6931557e-05 0.00013475353 2.8459479e-05 9.69026e-05 1.8028217e-05 7.756519e-12

exp_avg f4 [3, 30]
00000000: 1c6c b43a 19ca a13a 3ad7 203a 8245 d938
00000010: c3a4 1a3b 0400 0000 7073 bb3a 0a52 443b
00000020: 99ff d339 0000 0000 e397 a439 0000 0000
00000030: 0000 0000 8c85 e9b9 4701 283b 0f1c 823b
00000040: 4823 2d3b 7c39 7d3a f8c1 d43a 0000 0000
00000050: 4ecf 55ba 2d39 173b 0400 0080 10f4 09ba
00000060: 3945 e5b9 4873 e039 91a9 953a 0e31 61ba
00000070: 1316 b33a 0400 0000 f757 0fba 246a 003a
00000080: 44ac 4ab9 d477 26b8 408a 9cba 0000 0000
00000090: e941 c4ba 4814 bd39 974b a2b9 0000 0000
000000a0: 4f39 28b9 0400 0000 0000 0000 2080 7038
000000b0: e0a1 0b39 022e 1239 c068 b0b8 b750 74b9
000000c0: 8e3e 733a 0400 0000 3094 29b8 e93e 443a
000000d0: 0400 0000 2e7e 81ba 2ac8 27b8 05dd 06b8
000000e0: 6dce 04bb 7749 19ba 6ef1 d3b9 0400 0000
000000f0: 640c 9439 56ea 6e3b 1fc0 2039 731c 0038
00000100: eab9 913b 0000 0000 0379 9939 07a3 8a3b
00000110: 87c5 6537 0400 0000 fdef 0839 0400 0000
00000120: 0000 0000 f47c 953b 3bb3 143b 901b b83b
00000130: 2d98 963b b2ac 123b 953b 143a 0000 0000
00000140: 620b 593b 6cb7 303a 0400 0000 aa95 2739
00000150: f3cb 063b 15c0 f93a e998 023a 0853 0b38
00000160: 67ec 803b 0000 0000
0.0013765129 0.0012343555 0.0006135587 0.00010360313 0.002359674 6e-45 0.0014301371 0.0029956126
0.0004043549 0.0 0.00031393682 0.0 0.0 -0.00044540723 0.0025635527 0.00397063
0.0026418734 0.000965975 0.0016232124 0.0 -0.0008156196 0.002307485 -6e-45 -0.00052625034
-0.0004372986 0.000428105 0.0011418333 -0.00085903786 0.0013663195 6e-45 -0.0005468125 0.00048986287
-0.00019328395 -3.9689083e-05 -0.0011943057 0.0 -0.0014973256 0.00036064 -0.00030955367 0.0
-0.00016043078 6e-45 0.0 5.7339785e-05 0.00013316376 0.00013940784 -8.411845e-05 -0.00023299722
0.0009279036 6e-45 -4.043075e-05 0.0007486181 6e-45 -0.0009879523 -4.000232e-05 -3.215393e-05
-0.002026464 -0.0005847434 -0.00040424935 6e-45 0.00028237992 0.0036455593 0.0001533036 3.0544074e-05
0.0044472115 0.0 0.00029272595 0.00423086 1.3695454e-05 6e-45 0.00013059373 6e-45
0.0 0.0045620147 0.0022689837 0.00561852 0.0045957775 0.0022380766 0.00056546304 0.0
0.0033118357 0.0006741199 6e-45 0.00015982115 0.002056834 0.0019054437 0.0004981892 3.321751e-05
0.0039344314 0.0

exp_avg_sq f4 [3, 30]
00000000: a35e 4a38 e67d 5e38 61a8 f736 07a4 9536
00000010: 3809 1f39 d730 332c f9a1 8238 639c a039
00000020: ea9c 8e37 0000 0000 a2b1 4f37 0000 0000
00000030: 0000 0000 6321 9138 966a 4339 d1c6 9939
00000040: 850f 6539 31af 3137 43b4 5438 0000 0000
00000050: da1c 8d38 6b88 d438 be54 2b2e 1376 fa37
00000060: 30c6 1838 5952 0a37 5a31 9438 2d2f a938
00000070: 4810 9238 9d44 2b2a 1d89 4438 10e1 4f37
00000080: f17a 8736 07d0 6136 7851 eb38 0000 0000
00000090: 9656 a838 622b e138 8e07 8937 0000 0000
000000a0: 5a9f 2d37 8cbc eb2c 0000 0000 16a3 8337
000000b0: f416 1537 4352 7938 595d ae38 067f 3d37
000000c0: bd2f 0f36 25ec a929 2163 8c37 2dac 0937
000000d0: 3c6e 472f 1236 ed37 3515 3535 c49d 6036
000000e0: e0cc 8538 6708 b238 5674 6038 fe9e f329
000000f0: ccb8 f037 fdfe 9237 b331 f136 2fd4 8736
00000100: b213 9838 0000 0000 39cd ea37 f59b c838
00000110: a4f8 3a37 5b13 062b 7560 2a37 e01f 1931
00000120: 0000 0000 6373 c737 518c 0f38 1baf b238
00000130: 1496 9d38 0b2e 0c37 707d e536 0000 0000
00000140: 9ed4 ac37 9227 8f37 0ef4 1c33 cadf f536
00000150: c204 2737 52f9 f236 d882 0e38 aecc 7337
00000160: 8af8 0e38 0000 0000
4.824869e-05 5.3046177e-05 7.3807755e-06 4.4596413e-06 0.00015166856 2.5464541e-12 6.229053e-05 0.00030634095
1.7000788e-05 0.0 1.237952e-05 0.0 0.0 6.9203576e-05 0.00018636356 0.00029330564
0.00021844923 1.0590812e-05 5.071262e-05 0.0 6.728778e-05 0.000101343576 3.8956165e-11 2.9857305e-05
3.64242e-05 8.244614e-06 7.0663824e-05 8.067335e-05 6.964855e-05 1.5211656e-13 4.685774e-05 1.2390563e-05
4.037626e-06 3.36487e-06 0.00011220848 0.0 8.026992e-05 0.00010736917 1.633519e-05 0.0
1.03487055e-05 6.7000346e-12 0.0 1.569236e-05 8.886436e-06 5.944284e-05 8.314354e-05 1.1294853e-05
2.1336448e-06 7.546072e-14 1.6735461e-05 8.205924e-06 1.8138108e-10 2.827778e-05 6.7458615e-07 3.3470433e-06
6.380095e-05 8.4892665e-05 5.3514108e-05 1.08189485e-13 2.8696282e-05 1.7523294e-05 7.1881454e-06 4.048015e-06
7.251593e-05 0.0 2.7990538e-05 9.5657924e-05 1.1144355e-05 4.7633224e-13 1.0155248e-05 2.228255e-09
0.0 2.377638e-05 3.4224537e-05 8.520317e-05 7.5142976e-05 8.3553705e-06 6.8393347e-06 0.0
2.0603005e-05 1.7065355e-05 3.6543547e-08 7.3276215e-06 9.955083e-06 7.2411867e-06 3.3977296e-05 1.4531584e-05
3.408691e-05 0.0

exp_avg f4 [3]
00000000: 00dc a93a 03ed 1dba 5051 a63b
0.0012959242 -0.0006024392 0.005075611

exp_avg_sq f4 [3]
00000000: 83ca 2b39 e694 9338 11b9 6b38
0.00016383272 7.037241e-05 5.6200723e-05
